grid_search/params.pt (torch_old, 655315 bytes, 28 tensors)

convblock1.0.weight f8 [8, 1, 13, 13]
-0.00860060418346575 -0.03956524022137776 0.01690596240711431 -0.06728906772282062 0.000573704398647848 -0.04327985107113956 -0.07551295075839712 0.042307315538956045
0.04789249274835575 0.009888759112819681 0.060389378864506266 -0.03719779324574262 0.03567866776314886 0.03110403517447703 -0.05072933154334822 0.04520403740769135
0.06627268645719393 0.000683987680757418 0.03946224416190608 0.01586986725520357 -0.0609663911614567 0.03219210515257117 0.03620573133687534 -0.016613326911376115
-0.0045447558706918885 0.018528727997194606 -0.0670581670912281 0.04919654316975428 -0.03600701156946598 0.028354054831693724 -0.07642763700694073 -0.05188672327367853
-0.07133885990700127 -0.008115075564560205 0.05836750174299658 -0.06711833466635156 0.045616915474082975 0.04322849849506563 -0.05291300882550992 -0.06330735868839434
-0.0007817981275002656 0.030451294154353593 -0.014576666934594553 0.06893949095702996 0.0804838081654443 -0.0023855260013681662 0.029131251154607487 -0.007874728741119176
0.05718942627630432 -0.05552082471705236 0.027326237086071695 -0.015430035328102016 -0.03958925969273842 -0.01984116599931867 0.01395110122340737 -0.01542021057610609
0.02669515004657941 -0.03462671896096125 0.034433873241153864 -0.03919443337426187 0.07402981812055404 -0.029470149268384167 -0.014705118716663544 -0.059713566912320916
-0.06572513269297622 0.06886951822898305 -0.016600177696865503 0.058403587685282844 -0.06217777524447881 0.012819223044875063 -0.060517791498647756 0.0354470114206248
0.024889961897300292 0.06548416257527279 0.018434592531772806 -0.08374460190760567 -0.04973048544832537 0.020630213277827096 -0.04526179611187899 0.07543703384303367
-0.001511741991793711 0.04107402010416601 -0.05982929168876327 -0.03273431872164549 -0.02521353620392553 -0.047775579040852716 -0.024706214763921343 0.002487125395083922
0.029974632191998314 -0.01242273586158916 -0.03057202663591984 -0.012204751626471966 -0.06414308841380058 -0.050740229156586526 -0.02241803039543119 -0.04561651337874177
-0.003418057491731805 0.018860444035502213 -0.03790258959411171 -0.036882488077640635 0.019778434964402358 -0.06262136016210015 0.07892726904428332 -0.007937251557707801
0.028875988262666727 0.028555238164384128 0.0374215054049978 -0.007003180245498199 -0.004946680851069401 -0.02855164161361605 0.057548552741289234 -0.015591065397221798
-0.00035005068723459933 0.058962275295272704 0.026897645556328644 -0.03804005573195528 -0.060788557249486 0.04735930353895439 0.06715336984878419 -0.005036876955018438
0.051971232052912625 -0.07288382077176608 0.014269788546315604 -0.06030106746291934 -0.012570275859902696 0.07777077469526625 -0.05620485216174431 0.052371614739582455
-0.04156179633474143 0.030438250673419216 0.06060435018572979 0.0072810626064046995 -0.0629872096787745 0.07054707545261928 -0.036566339281211356 0.060102381722008796
0.07111202776404196 -0.014433913529285023 0.06556434821621822 -0.04079812389065402 -0.03900974054832384 -0.040733982114905254 0.007502058687420664 0.06774314969150488
0.011622338129839998 0.04076662757433919 -0.002689205230777194 0.049231403431164236 0.0028225851930633594 -0.012920604500690039 0.0217418733756921 -0.06540699806538829
-0.041470418424414596 -0.04264649994812783 0.07955571222340893 -0.031196782522705673 0.009544455458528741 -0.07117017466538146 -0.06816663374761825 0.07724443252931047
0.01838419606576191 0.06496025618132056 0.06626427174275415 -0.04686149855710446 -0.025009566399342674 0.05064204577697488 0.05316494371938232 -0.009499721292367017
-0.009409273983801661 0.019552172947880652 -0.05286364008693248 0.022486215715491656 -7.184521183703424e-06 0.06419401278042251 0.06301334218066863 0.03966553309758271
-0.03336131737212114 0.05854679160426158 -0.02237379809133531 -0.05695568569825737 -0.03555111475506363 0.03690372933056505 -0.028199271116745073 0.015971028010195606
-0.051755807679637285 0.009359999195118542 0.05432447418227047 -0.046512460855592214 -0.04510678618277162 0.019140832415709737 0.023064005725291072 -0.015394115075497239
0.06549160052758977 0.05395217349332393 -0.0648219540839061 0.03393094092432085 0.036472268729465185 -0.0643034299938288 -0.06488594707226959 0.07992308219937902
-0.07110785306162673 0.033836020624817935 -0.017195018693642865 0.05019242247884226 -0.027362680005069202 0.06186701092645268 -0.018087118683421975 0.06941747192494513
0.025935852184242693 0.04196508477178056 0.006657264764797925 -0.060369332111202476 0.03969632090582641 0.018785612245762372 0.05546201642822877 0.005577704656750703
-0.06044032793086164 -0.07233053089745035 -0.019720724599356462 0.06164553566335884 -5.305377980890931e-05 -0.018086042928964697 0.039976032792080576 0.04935421683137037
0.06830992392299631 -0.04887413844933122 -0.059124108075587385 0.0072052838103389425 0.04552121313070182 -0.06186025241999511 -0.010637984516556027 0.04991882161312763
0.03129446270179899 -0.013700484607720418 -0.0296126454946767 0.03267487870829309 0.06939472188777192 0.009928360699153932 0.012229266420390834 -0.038266860529201606
0.04143537185526949 0.016322519930124794 0.017675101280316182 0.016924274011451017 -0.030706677850967447 0.002604790805338791 -0.05156843935897319 -0.02603259825768653
-0.02361602707670362 -0.0044116968328800285 0.06482824733862466 -0.021669899844274695 -0.04381310383368867 -0.06235040643801759 -0.05337013250852611 0.07511078970641984
00000000: bef4 8c8d 319d 81bf a14f 9e29 e541 a4bf
00000010: e876 95ee cb4f 913f b072 3f39 db39 b1bf
00000020: 1a1a 9cd0 94cc 423f 5643 dad1 c628 a6bf
00000030: be88 ee15 d154 b3bf 0e24 3ef1 4da9 a53f
00000040: 64fd 2764 5d85 a83f a891 e6c7 8e40 843f
00000050: c463 7f4e 5beb ae3f 679a f2d2 960b a3bf
00000060: 1e47 6a6e 7944 a23f 635d 6477 bcd9 9f3f
00000070: 2d6e dae7 31f9 a9bf 175b a0cc fb24 a73f
00000080: 45a3 f32c 3ff7 b03f f1c8 1f5c b469 463f
00000090: 784d 3430 6534 a43f 826e 69c3 3040 903f
000000a0: 891f 63a0 fc36 afbf ebad a3cd 7b7b a03f
000000b0: 820e 0ac0 8e89 a23f 6d68 0c7f 1503 91bf
000000c0: dda9 539d 859d 72bf ba41 23e3 31f9 923f
000000d0: b526 965a b92a b1bf bd0e fb0f 4a30 a93f
000000e0: 842f 3cd2 826f a2bf 9e2e d868 d808 9d3f
000000f0: 1d93 74f9 c290 b3bf d535 1d87 e590 aabf
00000100: ef07 3c76 4343 b2bf 611e 3c01 a39e 80bf
00000110: 4652 455e 58e2 ad3f 529d 5acc aa2e b1bf
00000120: f00e 36b0 195b a73f 743e 95b6 0b22 a63f
00000130: 4886 e0f4 6917 abbf f1ac 293b e934 b0bf
00000140: 2e49 e1b1 329e 49bf 0d28 0ec2 9f2e 9f3f
00000150: ee6f 261e 5fda 8dbf 7d36 10bb 04a6 b13f
00000160: 5799 ed3b 969a b43f 9bb8 1b85 cf8a 63bf
00000170: a79d 002c 95d4 9d3f 078a 4333 a020 80bf
00000180: 1345 11b7 ee47 ad3f 7439 d0bc 396d acbf
00000190: 94ff 6dba 68fb 9b3f eaf0 e148 c899 8fbf
000001a0: 516b 4e1f 0b45 a4bf ee89 531c 3e51 94bf
000001b0: c054 fb1b 6592 8c3f fc76 f9a0 a194 8fbf
000001c0: a1c1 a531 f955 9b3f ff9d 02e3 97ba a1bf
000001d0: ee06 e40e 51a1 a13f 702f 0ef3 4a11 a4bf
000001e0: 0cb1 c13f 9ef3 b23f f587 433d 6c2d 9ebf
000001f0: 6c62 c69f b71d 8ebf 7527 08d2 c692 aebf
00000200: 420c 71bf 5cd3 b0bf 1a19 7cc8 6ea1 b13f
00000210: e067 4311 a3ff 90bf 7d9b 2736 13e7 ad3f
00000220: 2718 6dee c3d5 afbf 4e27 e7fd f640 8a3f
00000230: 6d2c a01e 30fc aebf 72c5 9555 1c26 a23f
00000240: dcee 6311 c17c 993f b8af aaf0 91c3 b03f
00000250: bcfc 2790 84e0 923f 77e2 6846 4970 b5bf
00000260: 00c2 3a31 4676 a9bf fee0 592d 1620 953f
00000270: 3313 1edc 8d2c a7bf df58 4369 d74f b33f
00000280: f429 8b9a b4c4 58bf 4a12 206a a707 a53f
00000290: 5fcb 4ae6 f1a1 aebf b68c bb78 8dc2 a0bf
000002a0: e244 a6c5 93d1 99bf 3f4c 0e6b 0a76 a8bf
000002b0: e70c ad01 964c 99bf 4c37 7447 e15f 643f
000002c0: d2a4 e583 abb1 9e3f 85db 0462 1771 89bf
000002d0: 5e7c 4bfa 454e 9fbf 4d64 bb08 cefe 88bf
000002e0: 1170 0073 ae6b b0bf 155f a391 9ffa a9bf
000002f0: 1773 8e8d c0f4 96bf 560d 3d32 0c5b a7bf
00000300: 941c 92a4 2f00 6cbf 7736 48f9 2650 933f
00000310: 4b18 7bdd f767 a3bf e459 2df0 42e2 a2bf
00000320: 8349 5a4d cc40 943f be60 ed15 f407 b0bf
00000330: 54cb 4ed7 9334 b43f 5f43 e2de 6741 80bf
00000340: 2c4d e9c4 aa91 9d3f 089d 2e98 953d 9d3f
00000350: e35a c35b e928 a33f 1c62 f5e1 5daf 7cbf
00000360: ec5c aa87 f842 74bf 4c0e e93b a43c 9dbf
00000370: b174 e9ff 0077 ad3f 904a ed5f 35ee 8fbf
00000380: 71e8 ec40 e0f0 36bf 5890 2ea8 4d30 ae3f
00000390: 57ec 0370 0e8b 9b3f 5610 9d76 fc79 a3bf
000003a0: e712 b782 ad1f afbf 27e8 b887 7a3f a83f
000003b0: 9914 5197 f630 b13f 1384 bb5c 8ca1 74bf
000003c0: 5c0b 002c f99b aa3f 7c4c 9f9a 83a8 b2bf
000003d0: 5da1 0499 7a39 8d3f d691 5511 c8df aebf
000003e0: 1085 c2dd 71be 89bf be97 e615 c9e8 b33f
000003f0: b089 d2e3 e1c6 acbf d726 17c9 73d0 aa3f
00000400: be9c 0a78 9647 a5bf 2257 c26c 342b 9f3f
00000410: 7709 168c 8807 af3f 75e9 645c bfd2 7d3f
00000420: 42fa a205 ee1f b0bf e7be e585 5f0f b23f
00000430: d3c9 b1be d2b8 a2bf c4c2 d047 bdc5 ae3f
00000440: 3c4b 99d9 6534 b23f ff18 7e14 878f 8dbf
00000450: 5d49 5f3b d3c8 b03f 9970 b2df 7de3 a4bf
00000460: 5fd0 c2af 15f9 a3bf 78ea 09a2 15db a4bf
00000470: 4b3b 718b 7aba 7e3f d2fa 7374 9d57 b13f
00000480: a9a0 5dd1 73cd 873f 3866 6608 5ddf a43f
00000490: ebe5 9610 ac07 66bf ba97 58c7 db34 a93f
000004a0: 402b 05e3 631f 673f 9b3a 332e 1e76 8abf
000004b0: ddd3 686c 8043 963f 17d1 9e55 83be b0bf
000004c0: 84c2 c455 9c3b a5bf 8cd4 2115 c3d5 a5bf
000004d0: aea3 355e c35d b43f eba7 b3a2 0cf2 9fbf
000004e0: 2b8a 6b20 0b8c 833f 916f a364 3538 b2bf
000004f0: aada 9f56 5e73 b1bf 81ef 8287 4ac6 b33f
00000500: de79 7683 4ed3 923f 74ab d63f 3ca1 b03f
00000510: 4e44 0700 b2f6 b03f d616 7df7 3afe a7bf
00000520: 56da 1697 1b9c 99bf f54b d414 c1ed a93f
00000530: f308 237d 6f38 ab3f d5b5 2c02 9774 83bf
00000540: 08f6 5060 2b45 83bf b3ed 811d 7c05 943f
00000550: a44b a46a f110 abbf 3473 6f64 a006 973f
00000560: 780c 3725 5222 debe fbac 7dd1 046f b03f
00000570: 4dac e073 a421 b03f b273 dd6e 0a4f a43f
00000580: 3425 210e bc14 a1bf 51ba 7356 d8f9 ad3f
00000590: 1bbe 5b2c 28e9 96bf df60 caae 4b29 adbf
000005a0: ca2e 6b76 c133 a2bf 4d82 26ad 0be5 a23f
000005b0: 2dad de0c 45e0 9cbf 2cfc f28b b55a 903f
000005c0: 3166 b9ba bc7f aabf 010e 78d3 552b 833f
000005d0: 6d72 f8df 6ad0 ab3f 3c66 7634 7bd0 a7bf
000005e0: 5d20 f796 3c18 a7bf df89 f984 a799 933f
000005f0: f732 3839 179e 973f f3a5 6626 f386 8fbf
00000600: ebbe 6dba 0ec4 b03f 4065 6789 9e9f ab3f
00000610: af6a daec 2b98 b0bf b657 2f73 655f a13f
00000620: 00d6 ce42 7eac a23f 4318 d888 3076 b0bf
00000630: f137 a58c 5d9c b0bf 0eea 3dd0 d675 b43f
00000640: 2272 63cf 1f34 b2bf cf4f 0574 f452 a13f
00000650: aef1 c52b 929b 91bf 1077 1b3a d2b2 a93f
00000660: f2bf 025f f604 9cbf 56c2 4269 08ad af3f
00000670: 498c e5fc 6d85 92bf 8c4a b0eb 57c5 b13f
00000680: ea6a b393 ed8e 9a3f 475b 5695 727c a53f
00000690: ab42 21e7 a544 7b3f 26ad 32a6 bae8 aebf
000006a0: 6ec4 1f80 1353 a43f 836d ec18 893c 933f
000006b0: 6d7b 7575 8465 ac3f 255d 66b1 a5d8 763f
000006c0: 6227 a5df 08f2 aebf 39f5 b4f0 4084 b2bf
000006d0: 7ca4 d46c ab31 94bf b0af 3cef 0090 af3f
000006e0: 0a00 61fe c1d0 0bbf 0d69 93cb 2585 92bf
000006f0: 9a7e ee12 bd77 a43f 48bd 6bb6 f444 a93f
00000700: 12d4 3d59 c27c b13f c425 85f4 0706 a9bf
00000710: 89fc 2ddd 8345 aebf 214d 2ea5 4983 7d3f
00000720: 355a 5773 8e4e a73f dae2 21a2 25ac afbf
00000730: 6a6f c01c 5ec9 85bf fb04 91b4 f58e a93f
00000740: ba42 b3eb d305 a03f 72d6 a2ea ff0e 8cbf
00000750: 256c caff c652 9ebf 9de0 e7fe c2ba a03f
00000760: 0de3 053d dac3 b13f c3ca 0b04 5255 843f
00000770: 571f a35a a80b 893f e3ad fcc4 b697 a3bf
00000780: b42e 085e 0437 a53f 611c 27c5 d9b6 903f
00000790: ef4d cff7 6b19 923f be07 8dcd 9854 913f
000007a0: b70a 8e44 9271 9fbf bf9b 4c6a a456 653f
000007b0: b6e7 1ab1 2d67 aabf b830 9618 4aa8 9abf
000007c0: 7ed5 d2bf cc2e 98bf 1896 dfd9 ff11 72bf
000007d0: 0628 2d82 9598 b03f df15 8e5c a230 96bf
000007e0: 2532 34d0 ab6e a6bf e051 1679 64ec afbf
000007f0: 0624 6a7b 5453 abbf 81a5 5df1 753a b33f

convblock1.0.bias f8 [8]
0.018813137703770504 -0.0598557178917271 0.071563087659416 -0.019584143790073692 -0.01141770926780603 0.07625522537326807 -0.04752234595422451 -0.04528402942072848
00000000: abfc b04c c043 933f f6aa a59d 68a5 aebf
00000010: c114 1961 f551 b23f 86e4 64a4 dd0d 94bf
00000020: f325 34ff 2a62 87bf 7496 2063 7685 b33f
00000030: 2aba 6753 d954 a8bf 6c48 c9e2 772f a7bf

convblock1.1.weight f8 [8]
1.0045048266331391 0.9914068715748084 1.002254180440556 0.9977257252374647 0.9992950066088058 0.9964190117587854 1.0000065560953162 1.015470854732319
00000000: 0604 31a7 7312 f03f f130 4ee7 9ab9 ef3f
00000010: f257 f4ad 3b09 f03f b8ba 0880 5eed ef3f
00000020: 0e1c 8e85 39fa ef3f 60bb 931f aae2 ef3f
00000030: 8770 e3df 0600 f03f 17dd f15d 5e3f f03f

convblock1.1.bias f8 [8]
-0.00663549917013464 0.009300412231555586 0.0002299570761002752 -0.0023312991729394126 -0.016203835069025188 -0.011928057554442172 0.004151072386047635 -0.000983072550680012
00000000: 9a93 da3e d32d 7bbf dfa4 fd32 180c 833f
00000010: 108d 1f3e 1424 2e3f 2b16 8fb6 1619 63bf
00000020: b4d4 c3f6 bc97 90bf cc1f cfc8 bc6d 88bf
00000030: 1630 4302 b700 713f a9e2 1a1d 4e1b 50bf

convblock1.1.running_mean f8 [8]
0.02822287763263312 9.321502332625885e-05 0.07467823990891874 -0.03159339879665792 -0.031035472989165307 0.05813427701291619 -0.05452550200703634 -0.01347077299937445
00000000: 6884 b941 75e6 9c3f 2c5e 1fe8 8d6f 183f
00000010: afb3 21f6 1c1e b33f 83c7 338d 022d a0bf
00000020: fe75 0456 c3c7 9fbf d11a 18a5 c6c3 ad3f
00000030: c31e d63f c4ea abbf a88b df8b 9096 8bbf

convblock1.1.running_var f8 [8]
0.03321326989311467 0.044200797060630875 0.08913779209606836 0.047249511398315305 0.02222548884743325 0.0636472230592595 0.050722196659549204 0.08675984665077992
00000000: 5ee2 f767 5401 a13f 0443 aaa3 7ca1 a63f
00000010: 23e8 e3fd bbd1 b63f 5a5d 6a84 1631 a83f
00000020: e008 f34e 47c2 963f ff4e 8535 2f4b b03f
00000030: da07 ab7f 42f8 a93f 5d98 f8af e435 b63f

convblock2.0.weight f8 [8, 8, 13, 13]
0.006372492607768726 0.017837772258015947 -0.013163398921066174 -0.024603331239284765 0.0009414601768169998 0.01292753302102176 0.006101538152325141 0.016540204541873195
0.015268830496268282 -0.016808646922791593 -0.009589105438737392 -0.005490628945279837 0.017660687381709297 0.014272234230878023 -0.005950749592947979 0.016337610466106916
0.024197870076444607 -0.007869100754254905 -0.0025117827566351115 -0.003314091070008631 0.017252034180596804 0.02445183530781455 0.030213309612266582 -0.0072258903933753085
0.013200603378528198 -0.008589268301478326 0.015942163874556655 0.002240470309294173 0.02127829312556578 -0.002547004508741733 0.012871517589847871 -0.02659041538562521
0.018655824639436422 0.021998642889147095 -0.008953169768220838 0.009072412665973115 0.013574046642366567 -0.008095992042643083 -0.014735245667906866 -0.021899308474499307
-0.01926319007755049 0.0123391905409682 -0.03395805957884699 -0.02052156646339875 -0.02013275354178658 0.004779936983899236 0.0045246055768673795 -0.019729973761477757
-0.0048134722608974495 0.015138002975204243 -0.016932501551659818 -0.012867201411892383 0.00443140103939866 0.013001788002124082 0.01575864780745946 -0.019697710551620982
-0.015891270670396373 0.01667349089900001 -0.03339725941961096 -0.010335006612468885 0.006933774982349118 0.004546438952600189 0.005777452490314246 0.024875300383544123
0.008352523781980054 0.005314598872009418 0.025033049852377524 -0.0007904283300477778 -0.0175577796893718 0.016216784922419607 0.00744811560167221 -0.0029968453755196346
0.005375035925313878 0.012126896206277155 -0.023712197652809873 0.0032412023131733643 -0.020969434024873043 -0.009991774547521943 0.009145309570098759 0.0036908277731121826
-0.00961536911568203 0.023278353396220343 -0.0033818954011288677 0.030361105490789058 -0.021298363039164457 0.01194743432991016 -0.007013745590216581 -0.009429967494382874
0.009089885544924417 -0.02651586795816661 -0.0011509667640442756 -0.015355725144708215 -0.01365354228380321 0.011516496956711586 0.01521752330534597 0.010068237140488732
0.025072297927138863 -0.03379282469995415 -0.013601697099510696 -0.014299379075583782 0.0030898334243559676 0.03076276210936907 0.013645277271045019 -0.007339748664469421
0.0004520305551452221 0.013644043868987103 0.019217255325461757 0.012912878836354435 -0.012032482138707829 -0.00843200866314677 0.014204841882711504 -0.027959582825454143
-0.018499006663762453 0.02452168298663659 0.0010068615923435637 0.0028513670109510587 0.014807506912575704 0.02517225377484227 -0.0031688137368901413 -0.009524378654023181
-0.0028434724276036405 0.024995695107726923 0.011642853817116943 0.008874703756546991 -0.0324249782451443 0.015870840014872715 0.02020649462441326 -0.009767308667913872
-0.001812444119324648 0.0287157116245264 -0.008993679575050356 0.019271715691721453 0.0381728112459976 0.0033074511223357165 -0.023113597731565228 0.03571762171465172
-0.017085030375058135 -0.02615218084140762 0.00022189481498168193 -0.010549831160111989 -0.007672580168420229 0.010332385048683512 -0.007262553288751035 -0.004677126261028065
-0.011937383398024679 0.019516906554401543 -0.0006835837640360674 0.02426310971930376 -0.02619796814432705 -0.008972719401276062 -0.0024179056418133058 0.011016222316272604
0.023547581901255093 0.018164320617872817 0.02157946175152862 0.0007603309214291566 -0.01493202392403458 0.013361364163455052 0.00894771854260099 -0.011696817131389163
-0.009144637339609664 -0.002622941269875523 0.016810213594303614 0.011528412261726512 0.014838431564919203 0.0063569252116556 -0.004681320125391553 -0.01849656944689288
-0.009352240452148905 0.008629778576265013 0.01242568106703305 0.01709386479733115 0.0035276847920141094 0.009277812959219993 0.008842645718375206 0.0062272800465836865
0.012345074755411821 -0.0031081351916030274 0.008497150438717615 -0.01729316786644944 -0.01809866719119261 -0.010426844366719356 0.0067393580856953276 0.008503504682931309
0.013221629689853966 0.009157206880626018 -0.005309641225272226 -0.019161164934608486 0.021455887804518813 0.015198151987624404 0.01640761655969622 -0.001579020174866377
0.00995336188656396 0.010951410888020626 -0.015674559210207148 0.0008548254890019004 0.011190611268675545 -0.011158362235473831 0.013104546662308529 0.021310626130860797
-0.009611484617200707 0.0044830189863818625 0.01057793236547971 -0.0038147903113514106 -0.008310721173940478 0.02917858022499321 0.02712637648433328 0.033732167681900634
-0.014157714977239812 -0.029251423503383504 0.02016337515227332 0.01124766908708606 -0.03379905748135562 -0.004804322741569259 0.023567458899231494 0.014499431286472167
0.030046234224774877 -0.009582442608544331 -0.0121195440558227 0.004854454930088381 0.02056065343920095 -0.006917239467853175 0.014933463212138778 0.008380492198926622
0.020682445073978623 -0.01435071030514338 0.00544797489083793 0.003292758423272277 -0.020165984225758573 -0.0017652183015669388 0.020195944384845867 0.015204592613022146
-0.006616774690893125 0.007120967534506863 0.03186323547003631 0.01482793620699825 -6.579351164377417e-05 0.004641068788100396 -0.00708895379304299 0.02126199613968386
-0.004835162180149309 0.016420300012272827 -0.0007867479920661276 0.01208321414824793 -0.0013287983052483797 0.01831450695796589 0.027638131709609673 -0.013758272733094436
0.012280798962711349 -0.012422271757109733 0.02267127869114894 0.003035072394907365 -0.011623276276793494 0.021100640632149024 -0.012357288535332108 -0.0018617577737796117
00000000: 7a88 82f5 0a1a 7a3f 193c eda1 1044 923f
00000010: 6821 f67e 69f5 8abf f078 2e9c 9d31 99bf
00000020: 9dc9 bf55 8ad9 4e3f b192 581c c079 8a3f
00000030: 5fce 1c2d edfd 783f fa54 4e56 eaef 903f
00000040: 8d80 09bd 4345 8f3f 9d29 4b33 4936 91bf
00000050: 0fe5 0ef2 73a3 83bf ef37 127c 577d 76bf
00000060: 34d3 eaaa a415 923f 5a8b 19da c23a 8d3f
00000070: a6df 362e d05f 78bf db3c 967a ceba 903f
00000080: e7da 7192 53c7 983f a48d 1bd3 ac1d 80bf
00000090: 0dc3 6b19 9793 64bf 8575 5f18 2726 6bbf
000000a0: b56b 616a 84aa 913f 969f e5e3 e609 993f
000000b0: 4d22 c1e2 3cf0 9e3f 16d1 c82e e598 7dbf
000000c0: a7ce 62fe ea08 8b3f 8081 9c13 4097 81bf
000000d0: 2ff1 df81 2453 903f cb2f 9856 9b5a 623f
000000e0: 8f24 5b14 fac9 953f 7c80 2ba2 74dd 64bf
000000f0: d449 c9d8 615c 8a3f 1a8e df91 843a 9bbf
00000100: cc3d d332 831a 933f dea2 0fef cf86 963f
00000110: 14e4 cc1a 0a56 82bf f2c1 919d 8e94 823f
00000120: e70b 3ab3 b5cc 8b3f f224 6aa8 a194 80bf
00000130: 0aff ef31 832d 8ebf a8dc cfb6 c56c 96bf
00000140: db4d 99cd bab9 93bf f81a a91e 4a45 893f
00000150: 0d4e a766 f362 a1bf 5fbd 4a03 9b03 95bf
00000160: 055f 2938 ae9d 94bf 0d57 5d90 2094 733f
00000170: 66da ad8f 6488 723f 39d7 3920 1834 94bf
00000180: f957 0d9f 4ab7 73bf a55b a45d ac00 8f3f
00000190: 608a 9df1 c056 91bf d47d 0a8a 1e5a 8abf
000001a0: 0985 a228 a926 723f 1ab6 1172 aea0 8a3f
000001b0: 5450 d9f3 0823 903f 094b 80fa a22b 94bf
000001c0: 33f2 481f cd45 90bf 7345 7c08 db12 913f
000001d0: 776d f711 7219 a1bf 3e69 3c1b 852a 85bf
000001e0: 5b9a 970c 9766 7c3f ebb8 d569 499f 723f
000001f0: fc61 0018 19aa 773f 9e82 8026 e978 993f
00000200: 4a80 dcc3 201b 813f 46d5 8bc5 c2c4 753f
00000210: 9e8a bd89 43a2 993f 0bd2 e7e9 97e6 49bf
00000220: 0693 39a6 aafa 91bf 1b5f 8d03 229b 903f
00000230: 58ef d04e ea81 7e3f 71fa 201c d78c 68bf
00000240: 9c8a 3938 2204 763f 3d13 dd74 fcd5 883f
00000250: 868c bda5 0248 98bf e8df e93d 4b8d 6a3f
00000260: 1ceb 68e5 0279 95bf eaee 4847 9176 84bf
00000270: 4d7a 1fac c6ba 823f 68f9 9412 3a3c 6e3f
00000280: af67 20ff 38b1 83bf 2a7e 2ada 47d6 973f
00000290: edd3 ae44 59b4 6bbf 7b06 9d4c fb16 9f3f
000002a0: a69f d8f2 3ccf 95bf 6f9c be7d e577 883f
000002b0: db4a ebfe 71ba 7cbf 4dfd eccf 0450 83bf
000002c0: 0861 1ec9 b79d 823f 1b4f d2c6 f926 9bbf
000002d0: 8006 1027 81db 52bf d64f 6c8a d272 8fbf
000002e0: b9fb aa6c 63f6 8bbf e035 590e f695 873f
000002f0: f970 6167 5d2a 8f3f 6c63 f9e9 a79e 843f
00000300: 29d0 876e 8dac 993f c0fd d909 4b4d a1bf
00000310: 5d31 b3e1 34db 8bbf 4ba6 dc2b fe48 8dbf
00000320: e10c 3fb0 d94f 693f 7008 c704 4680 9f3f
00000330: b9ee fd1c 0ef2 8b3f 9599 98c7 4810 7ebf
00000340: 9c01 7e73 d09f 3d3f 82b2 9e91 68f1 8b3f
00000350: 5024 912c b0ad 933f 1913 6542 1172 8a3f
00000360: 5d21 346a 7ca4 88bf 4b1a 950b cd44 81bf
00000370: 2c16 a69a 6d17 8d3f 7369 61d7 6fa1 9cbf
00000380: 3a73 8452 67f1 92bf 7fc6 e149 361c 993f
00000390: 8df0 1567 157f 503f 6d1f f301 c05b 673f
000003a0: fe00 66ef 6553 8e3f cd11 eb5a c1c6 993f
000003b0: e6f1 beeb 7bf5 69bf 2785 ab76 8481 83bf
000003c0: 1224 ada2 314b 67bf 6028 1db4 7898 993f
000003d0: 8354 0363 35d8 873f 4920 2b93 e62c 823f
000003e0: 0ad7 45ba 019a a0bf 61b3 4b0b 7240 903f
000003f0: df8a 50e6 02b1 943f c496 63fa e100 84bf
00000400: 5311 f90d f1b1 5dbf ee1d 3cc9 a667 9d3f
00000410: 3613 2a3d 476b 82bf b8f6 88f2 f6bb 933f
00000420: e2be cbff 628b a33f 86e2 e94c 3a18 6b3f
00000430: 2d5f 6649 17ab 97bf 3a87 4f82 9449 a23f
00000440: 5b21 d9fa bc7e 91bf 4c50 bb25 a3c7 9abf
00000450: 555e 6ef2 8d15 2d3f 00ef 7c5e 269b 85bf
00000460: 9a8b 638e 486d 7fbf c67d fd3e 2529 853f
00000470: 8831 c5cd 56bf 7dbf c13a 4985 5228 73bf
00000480: 58c9 5a7a a072 88bf e520 7b6d 3dfc 933f
00000490: d5ea 8ef4 5066 46bf 7884 f9ba 6dd8 983f
000004a0: db2b 9be1 a3d3 9abf 72cb 1303 4a60 82bf
000004b0: d93e 0135 b7ce 63bf ec41 9754 ac8f 863f
000004c0: 2bc0 a978 db1c 983f 8f02 08ec aa99 923f
000004d0: 0ad0 f329 ed18 963f edd4 8838 1eea 483f
000004e0: bca4 5553 ae94 8ebf d658 e5f0 335d 8b3f
000004f0: f340 1d74 2e53 823f 8974 5f38 80f4 87bf
00000500: 3490 7572 6cba 82bf 3474 26df b47c 65bf
00000510: 0d57 8156 b236 913f 7d82 1c4d 359c 873f
00000520: 5db2 5c92 9c63 8e3f 46e2 311e b809 7a3f
00000530: 675b 734d b82c 73bf d24c 73c3 c3f0 92bf
00000540: 8b28 1777 4427 83bf 80e2 0d46 7dac 813f
00000550: 56e9 81ae a272 893f 8d2f 11d9 0d81 913f
00000560: 9e56 fe59 17e6 6c3f 29f2 e7f9 3e00 833f
00000570: f241 5dd1 171c 823f 042e 4ac2 c681 793f
00000580: ccb6 bae2 5f48 893f 0ac1 fb5f 3b76 69bf
00000590: d9a7 f239 f466 813f 49f9 b8d9 4cb5 91bf
000005a0: 6adb bffe 7488 92bf b9bf 715c ab5a 85bf
000005b0: d17d 2fa9 ba9a 7b3f 5bd8 1d14 496a 813f
000005c0: 8124 f118 f113 8b3f f096 9980 03c1 823f
000005d0: 0517 a8f6 8fbf 75bf d957 fd02 fc9e 93bf
000005e0: 864d b541 88f8 953f b7cc f86d 3520 8f3f
000005f0: 78e7 1d82 28cd 903f d88a b000 e4de 59bf
00000600: 93ea 4d9e 6d62 843f 7173 df7c b16d 863f
00000610: 6c8b bfdc fd0c 90bf 163e 70c2 cb02 4c3f
00000620: a1a3 5e6b 1aeb 863f 7bb8 0607 32da 86bf
00000630: fc87 bf7a 8ed6 8a3f 2946 28e9 73d2 953f
00000640: 2e6b c6a0 2faf 83bf 3714 f13e c95c 723f
00000650: 5e62 8d0c e2a9 853f 9575 1bf4 3140 6fbf
00000660: 379d 2f1d 3605 81bf e37f 3d5f fde0 9d3f
00000670: c9d0 6f4f 04c7 9b3f d9ad 08ba 5745 a13f
00000680: 74b5 8156 b8fe 8cbf a1e1 3bcd 15f4 9dbf
00000690: 6989 6c33 b5a5 943f b705 1597 0409 873f
000006a0: 653d 092d 1c4e a1bf ea1a df90 b2ad 73bf
000006b0: 1c5a e364 1122 983f 15ec 7cb9 e0b1 8d3f
000006c0: b215 74a5 70c4 9e3f b5b9 f4ac f59f 83bf
000006d0: b6c3 e5aa 21d2 88bf e658 a2d2 43e2 733f
000006e0: d44b 6c18 da0d 953f 0c40 b054 4055 7cbf
000006f0: 9bb1 e580 6f95 8e3f a4a5 599f ca29 813f
00000700: 38b6 c664 c72d 953f d5cc 7abb e763 8dbf
00000710: 85ed c49f 9d50 763f 2d0c bb37 6af9 6a3f
00000720: 6713 f74a 64a6 94bf c8b1 08b8 dceb 5cbf
00000730: c738 94e2 3eae 943f 5eeb 2ce0 9523 8f3f
00000740: ce2c 70ee 301a 7bbf 824a d32a e02a 7d3f
00000750: 3dbd 93c4 6050 a03f 671f 9ce8 1b5e 8e3f
00000760: 0e93 56ec 533f 11bf c831 9d6a 8302 733f
00000770: 137b 438b 4e09 7dbf 4a3e 4568 b4c5 953f
00000780: 581c f4f6 08ce 73bf ea41 2cae 7bd0 903f
00000790: fcfb b372 b8c7 49bf a43f c78c 15bf 883f
000007a0: 99bc e550 62c5 55bf 6212 b5c1 09c1 923f
000007b0: b4e1 429f 2b4d 9c3f e134 811b 4c2d 8cbf
000007c0: 670b 4fef ac26 893f 37af 8217 d970 89bf
000007d0: c2df 25c2 2337 973f 93f6 aa15 02dd 683f
000007e0: c17f d9bb f1cd 87bf 4648 c205 689b 953f
000007f0: b10b 0331 c74e 89bf efdf 1730 c780 5ebf

convblock2.0.bias f8 [8]
0.0033195222356774984 -0.013203707899687202 0.023695054528165442 -0.009360936674430546 0.012528028309822964 0.007387270565097317 -0.004727327434036556 0.011817438475250845
00000000: 843a 19ee 8a31 6b3f 14b6 ebac 8b0a 8bbf
00000010: 5e04 1a31 8443 983f 1c4a 03a7 d32b 83bf
00000020: dd0e fe7e 4ba8 893f 4fa1 bd57 1d42 7e3f
00000030: 5b71 a04b f65c 73bf bc86 30be bd33 883f

convblock2.1.weight f8 [8]
1.002466643543891 0.9975765826263064 0.9967636420493058 1.0021583788949948 0.9988765687479606 1.0102782967091242 0.9963023223879983 0.9951112788024346
00000000: 63a1 9576 1a0a f03f 6d55 b4b9 25ec ef3f
00000010: 2032 8edd 7ce5 ef3f 1743 6c39 d708 f03f
00000020: 066c 70fe cbf6 ef3f 9f96 4393 192a f03f
00000030: caba 7268 b5e1 ef3f 4cca ca9b f3d7 ef3f

convblock2.1.bias f8 [8]
-0.041730287126731234 -0.042301208341941225 -0.050963925324266544 -0.03833114152133552 -0.039189888162766855 -0.03893150351947296 -0.03546980130003247 -0.03294495082742951
00000000: 538b ec14 ac5d a5bf 07e1 d104 81a8 a5bf
00000010: 1347 1691 f117 aabf 8d45 81ae 23a0 a3bf
00000020: 0768 fc6f b210 a4bf f2ec cc7c d4ee a3bf
00000030: 7994 2809 1929 a2bf db88 be1c 29de a0bf

convblock2.1.running_mean f8 [8]
-0.06049440650329081 -0.13554185253678766 -0.091364417242529 -0.12716444355870965 -0.08632689866476288 -0.27213560242469353 0.030172927637234448 0.0471081491418509
00000000: 7a8d 0b73 1ff9 aebf bd3f f177 6f59 c1bf
00000010: 8223 1390 a863 b7bf aa3b 26ab ec46 c0bf
00000020: 4bbf 8706 8519 b6bf bd71 1f72 ab6a d1bf
00000030: 80bb b4e5 a6e5 9e3f 2ff1 e02f 8f1e a83f

convblock2.1.running_var f8 [8]
0.061915913047948204 0.057623663197428086 0.05687728009154987 0.06853797696514222 0.05964152919793115 0.08146244569240954 0.06710665439488847 0.06997841324054187
00000000: 722c 494b 71b3 af3f 833d d149 d980 ad3f
00000010: eadc c1d3 041f ad3f e26a 9971 b48b b13f
00000020: 29ef c6a2 5589 ae3f 0ee0 190c b9da b43f
00000030: 4653 f8d5 e62d b13f 2f4a 4bf4 1aea b13f

convblock3.0.weight f8 [8, 8, 13, 13]
0.022374812271472585 -0.004133789929084265 -0.027288352380934116 -0.026112314418519852 -0.027315983265073066 -0.01850478491726629 -0.0009092958976270798 -0.008249216379532095
0.014608411004129318 0.024754200194337144 0.01932828796366067 -0.014513424674025359 -0.024891415922288752 -0.010709583705904798 0.002276805965765815 -0.004670375496459411
-0.02566770644364294 0.016923741570781144 -0.0060018168988898776 0.01381528660736999 0.009661644090693828 -0.003661292420505714 -0.0012593775257479518 0.004417205663163117
0.02453280332452267 0.02597819213794009 -0.008331019980275692 -0.03173004668596527 -0.016582493747784328 -0.01884793556448702 -0.00045140426113540803 -0.0008844854927410885
0.026586259166083388 0.015585557165733432 0.020883429853301896 0.029067325810595783 -0.001957925083208844 0.014122205360909842 -0.015033976989881206 -0.013712522628156852
0.017472982053361445 -0.03472707346086663 0.008137478801788755 0.018621966357739494 0.027242430759718116 -0.004692045954839104 0.014684498944400609 -0.003862193640902926
0.0009339011913978394 0.009718774854385246 0.002351079017801452 -0.0028017555032233553 -0.01586585036113305 0.02191488745924736 -0.032565943469101424 0.011538608733539828
0.021350717737875797 0.022026019757841263 -0.016418075852191363 0.023108068539366634 -0.009399946982030337 -0.008843349370414706 0.03115783415494994 0.028031399070194748
-0.009478067208444426 -0.0327152683696857 -0.022709395005010652 0.019211747997691146 0.01943694427098051 0.010317412613863585 -0.013749938238416321 0.02182963922168593
0.03439266545653869 0.016492459022060892 -0.016627235107845906 -0.00856819412627445 -0.001120517958582664 0.01758304223514484 -0.0003387979567273886 -0.021427916942536308
-0.01421383522774832 -0.018239379628239072 0.021293142590384298 0.023762908388689163 0.0123201237081646 0.020371490904725564 0.02775429758766706 -0.013394555824059615
0.03404965896573154 0.025651716795475576 0.02110742840032657 -0.02428138992907376 -0.030358122356004755 -0.005377341885941727 -0.0045102288264402615 0.023272681021548815
-0.020702957235091704 -0.00012274482138189603 0.028532497309561547 0.03226694319063301 -0.01560239013378187 -0.009791408913950032 0.01760774571805518 0.012481172054233183
0.0032818584231294715 -0.00339832461010844 0.005518231486454211 -0.005001174313213716 -0.0025184521438336425 0.006647253698241353 0.02651666607055283 0.01732804997850377
0.008586308896048165 -0.00565454620871093 0.027805209974312198 -0.0010641422291175256 -0.002483396621040084 -0.013785592821253788 -0.028193747430707083 -0.013972405765820243
-0.018668249519600735 0.02633188465522941 0.018035672118831027 9.075361816279113e-05 0.01610351615450803 -0.010556473874758122 0.010196321061667322 0.019838490920245696
0.022110729814323257 0.02092026060220766 6.909296969018378e-05 0.010048598789900125 0.0010494469512250231 1.6353429295256476e-05 -0.010486983573970605 -0.006383647749265958
0.014622373477613063 -0.0017706502435102301 -0.02099324558465412 0.011561717288494542 0.003222734222989053 0.02084297456405712 -0.014557736302714548 -0.02563437792114723
0.015404672166379555 -0.010841109640746732 -0.008305289687176688 0.035133576464727236 -0.009961520868181892 0.006805732743741054 0.00011841313135797327 -0.011371620826426183
0.013774524790679123 0.002146831127295993 0.00922767461066591 -0.022238925918327452 -0.009759822555104913 -0.016706708547707724 -0.0026172740841819433 -0.02420404362071807
0.02564182838194481 -0.0053543714168959354 0.008438734588506393 0.005874653369912055 -0.0012420600759574713 -0.012090103494784522 0.030381042882307703 0.005196353362473209
0.008554121513388234 0.02663581102260999 0.002046759681284324 0.011442954176355448 -0.012394593640287981 0.019743769296750674 -0.01296204488894916 -0.015355216327872715
-0.026457707700391558 0.010321182938371582 -0.011214493995019345 -0.002398902423024656 -0.01855460357384941 -0.02017476751707138 0.0018603727445370755 -0.01740775376644264
-0.016170335168370173 0.014422832730521924 0.002471591911196281 -0.002500616265708118 -0.002221370557840485 -0.02698698474369366 -0.01690443256055581 0.027047383329347453
0.002289618545026998 -0.023046288555648005 -0.016401426556836678 0.015607055690837637 -0.008207383673459 0.0074929813228280006 0.006849147517503629 -0.01305128300557485
0.0007998422045980661 0.0015464410480493268 0.018461486951734773 0.005003917284842189 -0.0188300178199935 -0.022684681077453816 0.007868708513507853 0.016768191662873952
-0.0228114054148434 0.010210292491938418 -0.018799782499413005 -0.0071656212428995465 -0.0027118020633115315 -0.007306235958758361 0.0016934232111480885 0.011367530389837083
-0.003989315851885422 0.011747227440388749 -0.005254527784553149 0.00965958642443797 0.028491866255074803 0.01914553784553975 0.013069663447696035 0.019811937677839436
0.026634248821176335 -0.016453642587358437 0.013188887616819174 0.0037948590557584853 0.011615680062717135 -0.008498120224162074 0.0013537032438298163 -0.020347041115416676
-0.00852924055641688 0.016045219009240608 0.008204237315392531 0.02914915989731759 0.018010596708507656 0.00170585765522176 0.009459349537236726 0.027099984969272482
0.015829195433702994 -0.00925466471440595 0.011581710728057006 0.02474320503943744 0.0080294314809433 0.017808642162380907 0.0010758639844591804 -0.013312718105293473
-0.009398530252834577 -0.012899087699882421 0.004222612385556901 -0.014425693567147327 -0.017211014806373912 0.013143769656284023 0.021653732124203174 0.019193690316673367
00000000: 2f28 d73b 6ce9 963f cefb dcc8 97ee 70bf
00000010: 6bbe 2654 7af1 9bbf cf38 cdc1 2fbd 9abf
00000020: 7154 209b b8f8 9bbf e91c 2818 ebf2 92bf
00000030: b3d6 4312 bacb 4dbf abaf 8a14 f7e4 80bf
00000040: edf7 12bc 03eb 8d3f dbdf 1741 2a59 993f
00000050: f630 c472 cbca 933f 2f89 9fe2 36b9 8dbf
00000060: ea75 59a5 227d 99bf fe42 2afe e7ee 85bf
00000070: b293 31e5 cea6 623f e6fe 4660 3e21 73bf
00000080: 6881 f49e a248 9abf 2233 4a12 7554 913f
00000090: 66ca c174 5c95 78bf 0ce4 4e61 304b 8c3f
000000a0: 8a35 29eb 7bc9 833f e917 a166 49fe 6dbf
000000b0: 0375 5452 36a2 54bf 42d0 ce9d c617 723f
000000c0: 7e04 d58f 201f 993f 890e 91f6 069a 9a3f
000000d0: e260 dc92 da0f 81bf 3430 a2b1 eb3e a0bf
000000e0: c5d8 5451 00fb 90bf b7e7 628b df4c 93bf
000000f0: 0b2e f289 4e95 3dbf 011b ef21 9afb 4cbf
00000100: 25b3 90a6 6d39 9b3f 53bb 8812 52eb 8f3f
00000110: 1433 fe40 7762 953f fe69 f436 d3c3 9d3f
00000120: 65ad 6906 110a 60bf 9849 6151 1aec 8c3f
00000130: ceba 003c 22ca 8ebf 5966 dea1 4f15 8cbf
00000140: 7e5e eef9 6fe4 913f 59b5 9939 bfc7 a1bf
00000150: 93c7 9aea 61aa 803f 608d f901 a311 933f
00000160: 43c5 b494 70e5 9b3f a27a d67e f737 73bf
00000170: 8376 cb15 e812 8e3f 3ca6 1c6c 9ba3 6fbf
00000180: 6061 9189 219a 4e3f 9211 41e1 6fe7 833f
00000190: 6c92 bcef 9142 633f e157 3f08 b5f3 66bf
000001a0: b77a b231 233f 90bf 3161 bb33 db70 963f
000001b0: ba8b 53bc 7bac a0bf f613 37d9 8da1 873f
000001c0: 85a1 b869 f6dc 953f 467b 152a fd8d 963f
000001d0: 64c5 646b e6cf 90bf dde9 993a a4a9 973f
000001e0: 1fc3 f986 4740 83bf 640d aa42 761c 82bf
000001f0: 11bc d6da d6e7 9f3f af08 1259 43b4 9c3f
00000200: 6b37 84a5 3c69 83bf 4990 743f 0ec0 a0bf
00000210: d811 6fb3 2141 97bf 6e74 6595 3eac 933f
00000220: 3b82 e93f 47e7 933f d90b 0cae 4b21 853f
00000230: 8ab9 7278 ed28 8cbf 4898 294a 825a 963f
00000240: 3959 b75a ea9b a13f 2780 8530 66e3 903f
00000250: 1d5e 0bdc ba06 91bf d80b 778c 338c 81bf
00000260: 56fb 25ff ca5b 52bf 80df 74fd 4901 923f
00000270: a575 e324 1634 36bf 1d59 f529 33f1 95bf
00000280: 7b9c a1ab 241c 8dbf a0ad 020c 58ad 92bf
00000290: 6414 389c decd 953f f08e 8cc9 4d55 983f
000002a0: 4120 4603 4b3b 893f e083 d39c 43dc 943f
000002b0: cf94 d961 9f6b 9c3f 1896 abd9 9a6e 8bbf
000002c0: 2142 65f7 f46e a13f 532b e492 7144 9a3f
000002d0: 0b6f ba8a 2f9d 953f 9351 967e 38dd 98bf
000002e0: bc7e bf1a 3316 9fbf ecea a138 8d06 76bf
000002f0: 08a0 e954 5179 72bf eadb 822f cbd4 973f
00000300: 9454 05f1 2733 95bf 48a5 b7fc a116 20bf
00000310: c466 457b 9f37 9d3f f9c6 7df3 4a85 a03f
00000320: 9186 e95a 25f4 8fbf c294 89a8 840d 84bf
00000330: f0b2 0fd0 c307 923f ce37 4f8e ba8f 893f
00000340: 3941 1e53 8ee2 6a3f b7b0 f8a1 cdd6 6bbf
00000350: 53db 41fc 489a 763f 309c de81 1c7c 74bf
00000360: 3d8f 04b3 93a1 64bf e9e4 df93 263a 7b3f
00000370: 66b4 4956 2f27 9b3f ba31 d8bf 71be 913f
00000380: 3f0d 37df b295 813f cc63 a4b0 3829 77bf
00000390: b409 fe0d f878 9c3f 976b a104 566f 51bf
000003a0: 8bd2 a668 0f58 64bf f907 96f2 9e3b 8cbf
000003b0: 9391 aa5c d2de 9cbf b530 7c8e 909d 8cbf
000003c0: 5419 a404 c51d 93bf 83b9 bedd bef6 9a3f
000003d0: f7a3 a577 f177 923f 1b1e bb49 5fca 173f
000003e0: 48d7 efac 707d 903f 87e1 6cf0 a19e 85bf
000003f0: 72b9 fe0b cfe1 843f df5a d196 8a50 943f
00000400: fcd8 c5f5 31a4 963f 05ed 70ec 1e6c 953f
00000410: 7da8 492e c01c 123f e9ce 6219 5c94 843f
00000420: 78c8 6615 b331 513f c958 a01a d725 f13e
00000430: 4403 df1b 337a 85bf ad1a ff64 bd25 7abf
00000440: 358d 02bf 55f2 8d3f 9ab0 dd38 a502 5dbf
00000450: 6756 e4dc 407f 95bf 8511 1e6d abad 873f
00000460: 4a0f ed42 9066 6a3f 187b 6a58 dc57 953f
00000470: 9773 974a 72d0 8dbf 496c 4cfb e53f 9abf
00000480: cf17 4819 7c8c 8f3f d6f6 df1a dd33 86bf
00000490: 7aca b81c 5d02 81bf 4da6 d033 07fd a13f
000004a0: b231 c7b2 b466 84bf 6577 f4f8 53e0 7b3f
000004b0: b0e2 3c1b 920a 1f3f c485 6a1c 014a 87bf
000004c0: 1486 f36b d135 8c3f 3bab 6a2f 3b96 613f
000004d0: 9715 5e85 f5e5 823f e5cc 110e cdc5 96bf
000004e0: 53f2 8235 f5fc 83bf ff46 583b 901b 91bf
000004f0: 8350 1453 d270 65bf 48b5 20df f1c8 98bf
00000500: 378a 3df9 d941 9a3f c5ef 0422 77ee 75bf
00000510: f439 9ec8 5348 813f c2f2 9541 0510 783f
00000520: 5a57 fad9 9359 54bf 273f ec38 b2c2 88bf
00000530: 023c 6446 351c 9f3f c527 017c c548 753f
00000540: 9908 2bc1 d284 813f 536a fa04 6b46 9b3f
00000550: 13ba 9abc 5dc4 603f 0716 a84f 676f 873f
00000560: d670 a832 5662 89bf d89d b7ed b537 943f
00000570: 8a3b 1937 d88b 8abf 7518 9c3f 8e72 8fbf
00000580: 3b84 33b5 ba17 9bbf 7d24 69b9 4523 853f
00000590: e52e 99e7 9ff7 86bf 0b80 80ee dca6 63bf
000005a0: dee2 285e faff 92bf 43ca c2ba b1a8 94bf
000005b0: 9a6d 2706 f87a 5e3f 1ba9 7e94 56d3 91bf
000005c0: fca1 dad2 f48e 90bf c46a 25d7 b789 8d3f
000005d0: 0247 afcd 4d3f 643f 5d0f 9822 2c7c 64bf
000005e0: 663c be3c 8d32 62bf 0238 91e3 79a2 9bbf
000005f0: 3525 0544 654f 91bf 0a21 5e2b 4fb2 9b3f
00000600: 55b8 ad98 adc1 623f 5210 903e 7299 97bf
00000610: 8e6c ad1a 89cb 90bf 7b63 3b8e 97f6 8f3f
00000620: 53b2 b463 08cf 80bf 4586 b2db f5b0 7e3f
00000630: e792 7d09 da0d 7c3f e432 708d a1ba 8abf
00000640: 5fb8 2b0e 9035 4a3f 8d05 806e 3e56 593f
00000650: 80de c56a 91e7 923f 11d0 71d1 fc7e 743f
00000660: a23f e11a 2d48 93bf e333 642d a73a 97bf
00000670: 8274 d12d 781d 803f 0c6d 384b ae2b 913f
00000680: 8321 ee80 df5b 97bf d10a af42 22e9 843f
00000690: b20e 070c 4040 93bf 82e8 4cce b259 7dbf
000006a0: b6d0 9aa5 0f37 66bf 13e1 fec7 24ed 7dbf
000006b0: 52cc d953 bbbe 5b3f 8ac8 151a dc47 873f
000006c0: 664e e0d1 1957 70bf 9eb1 662d ee0e 883f
000006d0: 7b69 d98f c585 75bf f969 49be 67c8 833f
000006e0: 39f9 11c7 f82c 9d3f 23c9 a44b e39a 933f
000006f0: d4e2 9e88 44c4 8a3f 4b3b 96a1 9449 943f
00000700: b4d9 8f2e 0246 9b3f b248 4043 39d9 90bf
00000710: 17fd e087 c602 8b3f ef7a 3271 6516 6f3f
00000720: e5dd eb2f f6c9 873f ffa2 8563 7667 81bf
00000730: c588 49ca d72d 563f adf2 a4d0 dad5 94bf
00000740: 3108 ff49 c777 81bf 807d 9b6b 286e 903f
00000750: 7676 aa17 62cd 803f a002 dc01 47d9 9d3f
00000760: d7c0 60af 5e71 923f 4ecf cfb5 e2f2 5b3f
00000770: 4c1d 3b67 6c5f 833f 6614 a934 19c0 9b3f
00000780: e4c7 d652 8735 903f c242 4512 1cf4 82bf
00000790: 344b 78e6 26b8 873f 8f3a c561 4856 993f
000007a0: 96d2 ed0c bc71 803f 4ac2 b1be 6d3c 923f
000007b0: cf5e 3428 80a0 513f 1298 10c7 b243 8bbf
000007c0: 11f8 8760 893f 83bf e9c8 8d3e d66a 8abf
000007d0: 1a2c 98e1 ba4b 713f d57e bed0 378b 8dbf
000007e0: 69bb e5a6 c39f 91bf 2e26 8fe6 1eeb 8a3f
000007f0: 7d3b 3d5d 652c 963f b874 ccc0 82a7 933f

convblock3.0.bias f8 [8]
0.02402189379081121 0.015925440930929846 -0.013529533474345226 -0.020413719087493946 0.004171505558963755 0.025554366442842053 -0.01730935283445419 -0.022546948760851324
00000000: c0c9 e000 3299 983f a011 e43f c24e 903f
00000010: e86a 6b3e 5fb5 8bbf ee68 7b7f 55e7 94bf
00000020: 1f9b 36ff 2316 713f 256a 9180 ec2a 9a3f
00000030: 150a 5b01 8bb9 91bf ecb3 351e 8c16 97bf

convblock3.1.weight f8 [8]
1.0047085639452398 1.0246368591754265 1.0097283462689348 0.9564273494198863 1.0104762361552508 1.0045501537741095 0.9663300183159349 1.005585560501135
00000000: b07e 8249 4913 f03f 2ef4 869e e964 f03f
00000010: 9a1b 11e9 d827 f03f 9e44 5887 0d9b ee3f
00000020: 69c0 3a21 e92a f03f d66c 9a2e a312 f03f
00000030: b2eb 39ee 2cec ee3f 4fea 7ae2 e016 f03f

convblock3.1.bias f8 [8]
-0.010075912555675425 -0.005733933198015741 -0.03275739934397595 -0.03137559226896941 -0.01013993726251642 -0.020433778294199387 -0.029155534162883984 -0.008196315522169333
00000000: c65a 3b17 aea2 84bf 02bf 01f9 767c 77bf
00000010: 94ce c4ed 93c5 a0bf 682e 602d 7610 a0bf
00000020: 9472 6857 3fc4 84bf ec79 07a6 97ec 94bf
00000030: 0572 e8c6 f2da 9dbf 695e ecd8 3ac9 80bf

convblock3.1.running_mean f8 [8]
1.2133161963627144 -0.7885658263989449 0.1529323460502878 0.36058056421420537 0.49323069212868786 -0.05917574605181429 -0.5955721112249425 0.11709936819173442
00000000: 0c5c 713e be69 f33f c70d 6466 ee3b e9bf
00000010: 5fad 6480 4993 c33f 2ae3 b780 c013 d73f
00000020: cadf 0477 1791 df3f 3e94 048c 484c aebf
00000030: 9ddd 833e ed0e e3bf fa08 c464 39fa bd3f

convblock3.1.running_var f8 [8]
0.2598456475792633 0.2341054247479379 0.23328194192903226 0.2138998179344989 0.28596412246444064 0.2093980260334622 0.23843784574434487 0.21438694830047472
00000000: 9e18 97a3 4fa1 d03f 07e6 8da3 2af7 cd3f
00000010: 7b91 aac3 2edc cd3f 5113 53b9 1161 cb3f
00000020: 671a 7476 3c4d d23f 0e91 d4f4 8dcd ca3f
00000030: 3be2 cc9e 2185 ce3f 5ee4 d111 0871 cb3f
